pinn_model.onnx (onnx, 41975 bytes, 12 tensors)

net.0.weight f4 [48, 6]
000000 e5 49 d7 3e 0e e6 8f 3e 35 2d b6 bd c6 d1 ac 3e
       0.42048565 0.28105205 -0.08895341 0.33753794
000010 b4 0c ae 3d da c8 c5 bd 20 aa a6 bd 54 37 a1 bd
       0.08498517 -0.0965745 -0.081379175 -0.07871881
000020 d4 c6 ce be 81 af 1f bd cc 26 61 be 37 15 96 3e
       -0.4038607 -0.038985733 -0.21987456 0.2931306
000030 82 ac 73 be 6c 44 60 3e 2d 5d 74 3e 5e 62 cb 3e
       -0.23796275 0.21901101 0.23863669 0.39723486
000040 5c 23 eb 3d c2 8a 2f bc ee e4 d9 be 47 ad 89 bd
       0.11481354 -0.010714235 -0.42557472 -0.06722503
000050 64 64 8d 3d 12 14 5b be 32 f9 06 3e 8f af e6 bd
       0.069039136 -0.21394375 0.13180998 -0.11263954
000060 8e cb 2f 3e a8 83 1a be 59 ea 9c bd 5c d5 d9 3d
       0.17167494 -0.15089285 -0.07661886 0.10636398
000070 83 e5 17 be 23 bb 37 3d eb e2 3b be c7 68 07 be
       -0.14833646 0.0448562 -0.18348281 -0.13223563
000080 68 41 9b be 46 dd b3 be ed 36 60 be bd 36 88 be
       -0.30323339 -0.35129756 -0.21895953 -0.26604262
000090 c8 9e 33 3d a7 b1 7a 3e e4 bc 1d 3e 26 e8 6c 3d
       0.043852597 0.24481831 0.15404087 0.05783858
0000a0 2d a0 b6 3e 68 ef 4c bd 2c 0b 83 bd f6 16 f9 be
       0.3566908 -0.050033003 -0.06398615 -0.4865033
0000b0 66 fd 58 3e 9b 70 a3 be 1c 47 e9 3d f4 24 95 be
       0.21190414 -0.3192185 0.11390516 -0.29129755
0000c0 8f 9d 4e be e1 03 09 3e ae 79 35 be cf b4 30 3e
       -0.20177291 0.13380386 -0.17722198 0.17256473
0000d0 e1 ed 99 3e ba d0 7f 3e 72 87 c8 be d1 46 40 3e
       0.300643 0.24981967 -0.39165837 0.18777014
0000e0 bc 4f 8d 3e 5f cf dc 3e 53 01 78 3e 1b c3 9a 3e
       0.27599895 0.43126962 0.24219255 0.3022698
0000f0 33 2e f3 be 56 88 e5 be 9b 37 b1 bd 61 e0 04 3c
       -0.47496185 -0.4483058 -0.08653184 0.008110137
000100 dc 74 73 3e fb e7 b3 3e d0 2e 9c 3e 87 64 33 3e
       0.23775047 0.35137925 0.30504465 0.17518817
000110 51 78 22 be e7 28 53 3e 6c 2f 57 3b 34 fe 7f 3e
       -0.1586621 0.20621072 0.0032834662 0.24999315
000120 26 3b c1 3d e0 ff cf be 5d 98 b9 be 42 1a db bb
       0.0943511 -0.40624905 -0.36249056 -0.00668648
000130 de 35 e0 bc a4 19 e9 bd 44 ed e6 3e ea 8b 26 be
       -0.027369436 -0.11381844 0.45102894 -0.1626431
000140 8f 8d 2e 3e 65 3b 06 be 9b 74 bf bd 17 e0 8b 3d
       0.17046188 -0.13108595 -0.093484126 0.06829851
000150 16 70 d9 3e ed b4 e2 bc 05 6a b5 3e fa 3c 6c be
       0.42468327 -0.027674163 0.3543245 -0.23070136
000160 6c 64 dd 3d 46 97 1d 3b 56 ef 40 3e e1 c5 dc bd
       0.108101696 0.0024046465 0.188413 -0.1077993
000170 78 e7 99 be 58 b4 73 be 43 4e 9d 3d a7 89 14 3d
       -0.3005941 -0.23799264 0.07680943 0.036264088
000180 c3 5e 12 be cd cc 8c be 22 b0 6e bc 93 5d fc bd
       -0.14293961 -0.275 -0.0145683605 -0.12322535
000190 2f 2a 88 3e b6 2c 2c be c6 bf 02 bf e7 90 fd bd
       0.26594684 -0.16813931 -0.51073873 -0.123811536
0001a0 b0 53 93 3e ca 29 0d be 67 a1 2d bd c3 8c 39 3e
       0.28774786 -0.13785473 -0.042390253 0.18120103
0001b0 6d cd ce 3d ff 9c 7c be 92 11 2e be 47 a1 d6 be
       0.100977756 -0.24669264 -0.1699889 -0.4191992
0001c0 5b ff 18 3e a6 da 72 ba a3 fe 94 bd 26 a2 b0 3e
       0.1494116 -0.00092641485 -0.072751306 0.3449871
0001d0 04 a9 17 bd 8e 74 8b 3e 06 06 cf be e7 cc a8 bd
       -0.03702642 0.27237362 -0.40434283 -0.08242207
0001e0 49 05 ad 3e de f2 e4 be 96 81 7c 3e 13 d5 bf be
       0.33793095 -0.44716543 0.24658808 -0.3746725
0001f0 56 de 86 3e c7 fa 8e bd 78 da bb 3e 11 5b 53 3e
       0.26341504 -0.06981426 0.36690116 0.20640208
000200 3b 72 43 be a4 2a 83 be ab 66 40 3e 3a 7f 8e 3e
       -0.19086544 -0.2561847 0.18789165 0.2783144
000210 d6 f1 77 3e 2a 0e 73 3e 08 da 9e be d0 30 0d 3e
       0.24213347 0.23735872 -0.3102572 0.13788152
000220 c8 95 a7 be 7e 85 63 3e 9f 5b d2 3d 21 87 a8 bd
       -0.32731462 0.22218892 0.102713816 -0.08228899
000230 74 78 ae 3e d5 60 df 3e f1 a4 1f be 12 fe bf 3e
       0.34076273 0.43628564 -0.15590264 0.37498528
000240 1e f2 d9 be 77 e9 c8 3e a0 a9 c5 3e 48 14 db be
       -0.42567533 0.3924062 0.38605976 -0.4278891
000250 d4 bc 4d bd f3 40 4a 3e 79 49 0e 3d 5f 9b 20 3e
       -0.05022891 0.19751339 0.034738038 0.1568427
000260 db 13 e6 3d 17 4e 00 3e 71 2d 6d 3e ed e4 b4 be
       0.11234256 0.12529789 0.23161866 -0.35330907
000270 5f 52 9c bd a9 4c a3 bd 35 68 d0 3d 5f 29 cd 3e
       -0.076328985 -0.07973606 0.10176126 0.40070626
000280 f1 5c f0 bd 97 00 9b be 70 1f 4b be 2e 2d be 3e
       -0.11736477 -0.30273888 -0.19836211 0.37143844
000290 6e 3e 6f be c6 4a 99 3d 48 8b 10 3e e3 49 70 3d
       -0.23363659 0.07484965 0.14115632 0.058664214
0002a0 74 de 22 3e a8 0d d9 ba 24 73 7a be f8 0f d1 3e
       0.15905172 -0.0016559856 -0.24457985 0.40832496
0002b0 bb 82 97 3c 4b 0b 10 bc af 58 d8 3e 36 a8 8f be
       0.018494954 -0.008791755 0.4225516 -0.28058022
0002c0 57 29 9d be 00 19 98 3d de a4 80 3e b8 40 77 be
       -0.30695602 0.07426643 0.25125784 -0.24145782
0002d0 54 9c a1 3e 0d 31 b3 3e 44 0c 0e 3e 4e 52 5a be
       0.3156458 0.3499836 0.13871866 -0.21320459
0002e0 ab 43 b8 3e 01 fb d5 3b 1b a0 a6 be 4f a2 13 3f
       0.35989127 0.006530166 -0.32544026 0.5766954
0002f0 9c 26 96 3d a1 6f e4 3d 39 54 49 be bd 15 49 3e
       0.07331583 0.11154104 -0.19661035 0.19637199
000300 d5 66 c7 be 6d 4a 4d be cd ac 6a be fb 6a 84 3e
       -0.38945642 -0.20047922 -0.22917481 0.2586287
000310 d4 fa 56 be d9 3f 5e be 24 05 cd bd 2c 70 97 be
       -0.20994121 -0.21704043 -0.10010746 -0.29577768
000320 05 44 0b be f0 14 00 be 6c db d6 bd 1b a0 00 3e
       -0.13600166 -0.12507987 -0.1049107 0.12561075
000330 c9 55 1f 3e 00 2a 01 3e 7a 65 9a be 0e 01 07 bf
       0.15560068 0.12613678 -0.30155545 -0.52735984
000340 03 5c c9 bd d2 2f 7f be 03 6c dd 3e fa 05 1f be
       -0.09832003 -0.24920586 0.4324647 -0.15529624
000350 d0 b7 12 3e e0 9a d5 be 92 52 93 bd 73 5f 1c be
       0.14327931 -0.41719723 -0.071934834 -0.15270786
000360 21 3f 91 3e 58 77 88 3e 7d dc 80 be 22 23 12 be
       0.28368476 0.26653552 -0.2516822 -0.14271215
000370 cb 93 77 be 96 2c ae 3e be e9 d7 3e 5e a0 f1 3d
       -0.24177472 0.3401839 0.4217052 0.11798166
000380 fb 7c 82 be 49 b4 25 bd af 4f 03 be 74 ad 5e be
       -0.25485978 -0.040455136 -0.12823366 -0.21745855
000390 76 26 c3 3e a3 c1 8b 3e 77 19 de 3c e3 89 78 bd
       0.3811528 0.2729617 0.027111752 -0.060678374
0003a0 f0 34 07 bc a6 21 a0 be 12 f6 87 bd 1a 23 53 3d
       -0.008252367 -0.31275672 -0.06638731 0.051547147
0003b0 6b 9b 51 bd 99 96 4a 3e 73 8f 1a be 8f b8 b9 be
       -0.05117361 0.19784011 -0.15093784 -0.3627362
0003c0 0b 42 82 be 86 0d cc be 80 43 c9 bd c8 df 99 be
       -0.25441012 -0.39854068 -0.09827328 -0.30053544
0003d0 09 c2 a1 be ee 4f 9f 3e 95 6a 1e bc e6 fc b0 3c
       -0.3159335 0.3111567 -0.009668966 0.021604966
0003e0 8c c1 83 be ae 1d 85 3e 48 0a cf 3d d3 01 df bd
       -0.25733602 0.25999206 0.10109383 -0.1088902
0003f0 4f 98 24 be 32 93 e1 3d d8 43 a2 be 51 ac e0 be
       -0.16073726 0.110144034 -0.31692386 -0.43881467

net.0.bias f4 [48]
000000 62 95 9a bd ad 5e e8 bd c4 00 53 3e 63 13 56 bc
       -0.07548024 -0.11346183 0.20605761 -0.013066146
000010 c5 ae 04 be d3 5a b7 be ad 20 f0 bb 9f a1 d3 3d
       -0.12957294 -0.3581148 -0.007328114 0.10333561
000020 37 a2 a3 3e 1a 0e 9f be 7b 91 12 3d 53 f9 5e 3e
       0.31959698 -0.31065446 0.035783272 0.21774797
000030 1e ea dd 3e 5a da dc bc e9 30 d6 3e 40 58 c5 3d
       0.4334268 -0.026959587 0.4183419 0.09635973
000040 6d 89 99 3e 2d 97 41 be 87 0f d9 bd ef 23 a6 be
       0.2998766 -0.18905325 -0.10598665 -0.3244929
000050 60 5c 76 bd d0 7c 5d be 39 6a a4 3e c6 22 14 be
       -0.06014669 -0.21629643 0.3211229 -0.1446639
000060 90 92 c5 3c d5 b3 11 be f0 c3 cc 3e d9 8e 10 3e
       0.024117738 -0.14228757 0.39993238 0.14116992
000070 92 da 9c be ad 2f 91 be a2 b0 41 bd 32 eb af bd
       -0.30635506 -0.28356686 -0.04728759 -0.08589782
000080 68 19 81 3e 83 65 9f 3d 3d 0f 94 3e 39 df a2 3e
       0.25214696 0.07783034 0.28917876 0.3181093
000090 01 51 b4 3e 1a f6 8c 3e 48 0e af bd 1d 3c c4 be
       0.3521805 0.2753151 -0.08547646 -0.38327113
0000a0 e2 5e 93 3d ce c8 25 be a6 3c 00 3e 7c 17 ad 3e
       0.07195832 -0.16189882 0.12523136 0.3380698
0000b0 d7 8c 2e be 99 cb b4 3e ac 73 9b bc b3 2d 21 bd
       -0.17045914 0.35311583 -0.018976055 -0.039350223

net.2.weight f4 [48, 48]
000000 c8 82 d4 bd 6a e7 c9 3d b0 04 3a bc 07 06 1d 3e
       -0.10376507 0.09858592 -0.011353657 0.1533433
000010 a1 54 1a be be 10 c6 3d d6 38 12 3e 8f 69 60 3d
       -0.15071346 0.09671162 0.14279494 0.05478817
000020 88 13 19 bd ca c6 03 3e 64 6a 0d 3e 30 8c 58 bd
       -0.037372142 0.12868801 0.13810116 -0.05286807
000030 43 0f bb 3d 1a 3e 9a be 07 fc c7 bc da 56 fc bc
       0.0913377 -0.30125505 -0.024412168 -0.030803133
000040 c9 67 ab 3d 8e 53 b0 3d 71 64 56 3b 49 71 e7 bd
       0.08369405 0.08609687 0.0032713676 -0.11300904
000050 d7 67 8d bd 61 26 fa bd 4c 51 79 3d 3f 29 86 be
       -0.069045715 -0.122143514 0.060868546 -0.26203343
000060 cf 17 af 3e dc da 1c 3e 71 5f 04 bd 4d d8 2c bd
       0.34197852 0.15317863 -0.032317583 -0.042198468
000070 0b b4 3f be c4 bf 2d bc d8 5a 81 3d 8e c7 16 3e
       -0.18721025 -0.0106048025 0.06316155 0.14724562
000080 b2 f7 b0 3d 91 22 b3 3d 4e a1 87 3e 37 98 05 3e
       0.08640994 0.087468274 0.26490253 0.13046347
000090 8a 17 8c bd d1 cf fc bd fb 88 4b be 41 4d 8b bd
       -0.06840427 -0.12344325 -0.19876473 -0.068018444
0000a0 5d 8d f9 3d 1c 81 ec 3d 62 54 a2 3e 77 e4 10 bd
       0.12185166 0.11548063 0.31705004 -0.03537413
0000b0 03 ce dc bb a9 d8 7f bd 20 ea 63 bb 44 ee 2e be
       -0.0067384257 -0.062462483 -0.0034777 -0.17083079
0000c0 fa e8 2a 3e 38 83 cb 3d b3 4f da bd 67 0e 40 be
       0.16690436 0.09937137 -0.10659733 -0.18755494
0000d0 a4 6f bd bc 4a 95 3d 3d f4 46 ec 3d c7 16 af bd
       -0.023124523 0.04628495 0.11536971 -0.08549266
0000e0 ac 4d e2 3d 5f f5 a1 bd 9e 44 c4 3c 9f 26 c5 bc
       0.11049971 -0.07908129 0.0239585 -0.024066268
0000f0 0d ed a5 bc c3 0f 88 3e 60 dc 23 3e 49 ab 3d 3e
       -0.020254636 0.26574525 0.16002035 0.18522371
000100 76 5e e8 bd c9 b3 e5 bd 4d 45 0f 3e a1 15 f7 3c
       -0.11346142 -0.11215932 0.1399128 0.03016168
000110 18 7c e4 3d 2d 2d 65 3d bf 78 8f bc ba 72 80 3d
       0.111564815 0.055951286 -0.01751363 0.06271882
000120 b1 a3 77 3e e2 8b 36 bc 67 c1 1a 3d e0 1c 96 bd
       0.24183537 -0.011141749 0.0377821 -0.07329726
000130 e6 8b 00 bd 80 16 8f 3a 8b 26 01 3e 23 0a 08 be
       -0.031383418 0.001091674 0.12612359 -0.13285117
000140 cd 7b 2a be 22 59 27 be d1 ec 87 3c e9 20 56 3d
       -0.16648789 -0.16342595 0.016592415 0.05227748
000150 83 a4 8c 3c 99 c6 09 3e 85 f2 8f 3c ce 5d 00 be
       0.017168289 0.13454665 0.017571697 -0.12535784
000160 7f 61 0c be 34 83 e3 3c e7 b4 71 bd 3a cf 6a 3d
       -0.13709067 0.027772523 -0.059010413 0.057326533
000170 d9 ad 0c 3e 4c 3e 21 be db a9 1f be 8a a2 b8 bd
       0.13738193 -0.1574642 -0.15592138 -0.09015377
000180 7b 75 20 3e 9f 3f c2 bd 37 8d 03 3e f5 9d 63 3d
       0.15669815 -0.09484791 0.12846838 0.05557056
000190 36 c4 6b bd a2 72 13 be 0d 29 d4 ba 95 38 00 be
       -0.05756017 -0.14399198 -0.001618655 -0.12521584
0001a0 3a d0 26 3e f2 61 b8 bd ee 91 6d be 4a d7 34 3d
       0.1629037 -0.090030566 -0.23200199 0.04415063
0001b0 51 42 67 bc bd 92 06 3e ad 98 c4 bd ce d6 91 bd
       -0.014114932 0.13141914 -0.09599433 -0.07121049
0001c0 6f 11 67 bd 1d 8b 2d be 15 76 0f be d9 5c 25 3d
       -0.05641311 -0.16947599 -0.14009888 0.04037175
0001d0 0f 11 51 be e5 be 65 bd 41 72 27 3e db 85 bb 3c
       -0.20416664 -0.056090254 0.16352178 0.022890976
0001e0 a2 88 99 3b ff 83 d6 bc f1 58 cc 3d 02 ab 1d 3e
       0.0046854774 -0.026185988 0.09977902 0.15397266
0001f0 f7 21 b8 bd 61 02 e4 bc c0 0f 05 be ae 0e ad 3d
       -0.08990853 -0.027833166 -0.1299429 0.084500656
000200 33 15 0c bd 4b 5a 55 be 59 ba 9f bd 0b 79 cf bd
       -0.034199905 -0.20835225 -0.07799215 -0.10130509
000210 1f 1b b1 3d ef 7d 21 bc c5 b2 9d 3d 64 07 6d bd
       0.08647751 -0.009856685 0.07700113 -0.057868376
000220 1c e9 a6 bd 09 e6 87 bc be 11 c0 bd f5 2e 7a 3c
       -0.08149931 -0.016589181 -0.09378384 0.0152699845
000230 ce 37 50 bd 51 6c cd bd d4 f4 c6 bd 27 19 89 bd
       -0.05083447 -0.10030425 -0.09714666 -0.066942506
000240 2b d8 e2 bc 77 a1 c9 3d 24 a5 f5 3d 76 98 2c be
       -0.027690968 0.0984525 0.11994389 -0.16855034
000250 67 e4 ca bd d3 1f d1 bc 2f 81 81 3d d9 57 16 be
       -0.099068455 -0.02552787 0.06323468 -0.14681949
000260 96 28 c9 bc a0 75 d2 bd 1f a2 50 3b 0d d6 17 3e
       -0.024555486 -0.102763414 0.0031834913 0.14827748
000270 a5 bf f1 bd a6 22 1f 3e 01 34 cf bd a1 cf 6a 3e
       -0.118041314 0.15540561 -0.10117341 0.22930767
000280 4c 8c 20 be 7c 54 29 3d ab 21 9a bd ce ae ae 3d
       -0.15678519 0.041340336 -0.07525953 0.08529435
000290 d7 9c 8f bd ea a4 07 3e 64 c3 d1 bd 02 91 3f 3d
       -0.07012337 0.13246503 -0.10242346 0.04676915
0002a0 bb 0e 1d 3e e1 ee 57 3d 00 f0 a8 bd f5 57 13 3e
       0.1533765 0.052718047 -0.08248901 0.14389022
0002b0 d7 f2 79 bb 5c c9 30 bc 85 12 02 3e 1d 72 e7 3c
       -0.0038139129 -0.010790195 0.12702377 0.028252656
0002c0 3b bd 15 be 1f 31 8f bd 11 d5 67 3e 97 23 79 bd
       -0.14622967 -0.06991791 0.22639872 -0.060824957
0002d0 78 b6 e1 3c 8b 24 78 3d a3 48 86 3e c7 c7 cc 3d
       0.027552828 0.060581725 0.26227292 0.09999042
0002e0 b6 01 0d be 8e 95 09 be f5 db a7 bd cb 95 a4 bd
       -0.13770184 -0.13435957 -0.0819625 -0.08036383
0002f0 3b 20 8e 3d 0b 77 62 bd 5b 4a 1d be c3 ef 85 3d
       0.06939741 -0.05528931 -0.15360396 0.065398715
000300 47 df 8d 3d 2b d4 1e 3d 34 16 20 3e 8f 52 65 be
       0.069273524 0.038776558 0.1563347 -0.22394775
000310 a4 a1 c9 bd 51 8b da bd ee 1d 7c 3d a9 be 2f 3d
       -0.09845284 -0.10671104 0.06155198 0.042906437
000320 c5 4b ef 3d 7f 36 1f 3e 6b 37 a0 3c 5c 27 29 bd
       0.11684374 0.15548132 0.019557675 -0.0412973
000330 8f 3a 12 3e 40 8d ae bc dc d8 ac 3d 16 dd 2b be
       0.14280151 -0.021307588 0.084398 -0.16783556
000340 25 cd bc 3c 38 16 a9 3c 6c 62 4a be 42 0b 47 bd
       0.02304704 0.020640478 -0.19764107 -0.04859472
000350 03 16 3c be 19 de f7 3b 5f 98 98 3d 9b 5b 2e 3d
       -0.18367772 0.007564318 0.074509375 0.04256783
000360 6d 9c 89 be d9 06 c1 bc a2 1a ff 3d 1f 4f 1d bd
       -0.26877156 -0.023562836 0.12456252 -0.038405534
000370 37 b5 c8 3d e0 83 8e bd 01 cd 8b bd fb d2 d5 bd
       0.09800189 -0.06958747 -0.06826211 -0.10440632
000380 9b 53 97 3d d6 39 bf 3d 3d 89 46 be 57 90 00 be
       0.07388993 0.09337203 -0.1938829 -0.12555061
000390 57 cb c9 bd 0a e6 96 bd 8e e6 f2 3d b1 df a3 bd
       -0.09853237 -0.07368095 0.11860381 -0.0800165
0003a0 70 70 78 bd 9e e3 89 3c ba f1 17 bd 93 e5 cc 3d
       -0.060654104 0.01683217 -0.037095763 0.10004725
0003b0 e5 50 b3 bd 0c ab 97 bc f9 c8 e5 bd df c1 9a 3d
       -0.08755664 -0.018514179 -0.11219973 0.07556509
0003c0 9f 36 99 3d 0a 63 e9 bd 58 66 90 3d ee d6 2e 3d
       0.07481121 -0.11395843 0.070507705 0.04268544
0003d0 61 48 3e be cf ff 90 3d ad 65 57 bd 73 fd c3 bd
       -0.18582298 0.070800416 -0.0525872 -0.09569826
0003e0 c9 34 9b bd 08 be 84 bb 66 4f 0c be 92 00 0f be
       -0.07578427 -0.004050974 -0.13702163 -0.13965061
0003f0 9d a7 88 be 80 31 c8 3d 06 03 18 3e 82 cc 82 bc
       -0.2669038 0.097750664 0.14844903 -0.015966658

net.2.bias f4 [48]
000000 94 2d 0a be 82 9f d5 bd 26 08 54 3e fe 1b 97 bc
       -0.13493949 -0.10430814 0.20706233 -0.018445965
000010 91 ae 20 bc b6 1f 10 3b 1b de 63 3e f2 ae 17 3e
       -0.009807245 0.0021991557 0.22252695 0.1481283
000020 ec 0c f5 bd 25 b5 cc 3d b1 c7 d2 3d e1 42 8b bc
       -0.11965355 0.09995488 0.10291994 -0.016999664
000030 f0 10 20 3e e4 a4 8b 3e 43 eb e7 bc d0 b9 8c bd
       0.15631461 0.2727424 -0.028310424 -0.068713784
000040 93 81 c9 3c 46 a1 87 3d f7 3c 00 3e 4d 78 18 be
       0.024597919 0.06622557 0.12523256 -0.14889641
000050 97 24 a1 3d b7 26 53 bb 15 8c bb bd 82 99 67 bd
       0.07868307 -0.003221912 -0.09157578 -0.05654288
000060 67 61 ff bd f4 d3 fb bd a9 c6 34 bb 80 55 2a 3e
       -0.1246975 -0.12296286 -0.002758423 0.16634178
000070 03 30 9a bd f7 37 57 bd a6 53 21 bd f0 1d 84 3d
       -0.07528689 -0.052543607 -0.039386414 0.064510226
000080 ca cd 85 3d 72 5b d6 bd 0d f9 a9 3e af e0 03 be
       0.06533392 -0.104666606 0.33197823 -0.12878679
000090 b3 77 4b 3e a6 7e ba 3b 4c 6f de bd 92 bd 82 3c
       0.1986988 0.005691367 -0.10861072 0.015959535
0000a0 a7 1b 20 be d4 d8 73 bc ed 61 d6 3d 1c 12 a0 bd
       -0.15635549 -0.014883239 0.104678966 -0.07815954
0000b0 29 13 c9 3d 4d a1 19 be e0 f2 2e 3d 5f f7 4a 3e
       0.09818108 -0.15002938 0.042712092 0.19820927

net.4.weight f4 [48, 48]
000000 5a 60 a6 bd cf fa 5b bd e7 c1 5e bc 14 ef f8 bd
       -0.08123846 -0.053705987 -0.013596035 -0.121549755
000010 6c 89 00 be 64 ba a4 bd 55 44 f8 3a be 6c ba bd
       -0.12552422 -0.08043364 0.0018941263 -0.09102772
000020 b7 6e 25 bc 6a 16 a2 3d 15 94 a1 bd b0 48 6e bc
       -0.010097197 0.079144314 -0.078895725 -0.014543697
000030 2d 5d 1e be fa ff ff 3d e4 4c 73 bc 9c f3 c4 bd
       -0.15465231 0.124999955 -0.014849875 -0.09616777
000040 62 37 d1 bc 2d 92 e9 bd a4 7d 15 3d 5d e1 09 bd
       -0.025539104 -0.11404834 0.036496773 -0.03366219
000050 fd 7b 83 3d 37 c7 0f 3e 11 aa 06 3d 97 b2 27 3e
       0.06420133 0.14040838 0.03287703 0.1637672
000060 fd 9a 12 3d 15 72 17 3e 77 30 be 3d 79 a5 dd 3c
       0.03579234 0.14789613 0.09286588 0.027056443
000070 5b 1f 46 3d be 9d 11 be 8c bc 8a bd 74 34 38 3d
       0.048369747 -0.1422033 -0.06774244 0.0449719
000080 0d a0 77 bc ac f2 ed bd 89 55 14 3e 75 b5 de 3d
       -0.015113843 -0.116185516 0.14485754 0.10874454
000090 4a 03 09 3e e4 28 86 3d a0 d0 b6 3d f2 84 cc 3d
       0.13380161 0.06550768 0.08926511 0.09986295
0000a0 86 85 18 bc c3 17 04 be f8 79 9f 3d 40 ff 10 bd
       -0.009309178 -0.1289969 0.077869356 -0.035399675
0000b0 58 02 45 bd 71 18 ef bc 19 1f b1 3c 22 e1 01 3c
       -0.04809794 -0.02918646 0.021621274 0.007927211
0000c0 82 3e b4 3d 11 42 ec 3c d3 b9 ec 3d f6 27 7c 3d
       0.08800985 0.028840097 0.11558881 0.061561547
0000d0 69 f8 0e be b0 a5 23 3e 0a 3e 9f bc d7 6b c8 3b
       -0.13961948 0.15981174 -0.019438762 0.006116371
0000e0 52 db 21 bd 11 6f 66 3e c9 af 83 3e 10 0c 3d be
       -0.0395158 0.22503306 0.2572005 -0.18461633
0000f0 3f ca 4e 3e 4d 6d c5 bd 90 7f aa bd ad d2 c7 bd
       0.20194338 -0.09639988 -0.08325112 -0.0975698
000100 5c b6 35 3e c4 d6 b5 3d a8 a2 29 be 47 b5 18 3e
       0.17745346 0.08878854 -0.16565955 0.14912902
000110 13 7c f7 bc 3a a3 3d be 5a ed 1c be b8 6f 82 be
       -0.03021053 -0.18519297 -0.15324917 -0.2547586
000120 f6 27 79 bc 58 e6 b8 bd 32 2f 39 be 88 71 00 3d
       -0.015207281 -0.090283096 -0.1808441 0.03135827
000130 e2 36 44 be 8d b1 49 3e 9a ed c7 3d 0d e0 97 3d
       -0.19161561 0.19696636 0.09762116 0.07415781
000140 3b 4f 51 3d f9 e3 e5 3d 5e 91 13 be 3b e2 b8 3d
       0.05110095 0.11225123 -0.14410922 0.09027525
000150 fc 54 92 bd 14 cc 3d 3e 88 b4 f7 bd f2 29 9e 3d
       -0.07145116 0.18534881 -0.120949805 0.07722844
000160 72 c0 10 be 18 80 e6 3d 1b a6 95 bd de cc 31 3d
       -0.14135912 0.11254901 -0.07307073 0.043408267
000170 93 66 43 bd e2 85 5b 3d bd 70 5a 3d fe 85 38 bd
       -0.047705244 0.053594477 0.05333017 -0.04504966
000180 76 50 36 bd f3 1c 5e 3d 85 bf ce 3d f1 19 b8 3c
       -0.044510327 0.054226827 0.10095123 0.022473307
000190 f3 5c 86 bd aa cd 17 be 65 3f 13 3d f7 f3 1b bd
       -0.065606974 -0.14824548 0.03594913 -0.03807446
0001a0 3d 31 f1 3c 59 19 8b bc 12 0f 8b 3d e0 6b e0 3c
       0.029442424 -0.01697986 0.06789984 0.027395189
0001b0 65 82 49 3d 16 5c ff 3d 45 5e 3f 3d c5 5a 7d bd
       0.04919662 0.12468736 0.04672076 -0.061854143
0001c0 e4 b9 d4 bd f7 a0 1f 3c 3c 71 20 bd a0 92 94 bd
       -0.10387018 0.009742967 -0.03917049 -0.07254529
0001d0 de f5 e9 bd d2 89 ea bc ea 94 56 3d 3a 90 30 3e
       -0.114238486 -0.028630171 0.05238811 0.17242518
0001e0 38 f3 63 bd 4b 94 05 3e 07 eb 73 bd 0b b0 14 be
       -0.055651873 0.1304485 -0.05955031 -0.1452028
0001f0 a2 97 c3 3d 05 d5 cd bc 3e 97 ab 3d 45 f9 80 3d
       0.09550406 -0.02512599 0.083784565 0.062975444
000200 67 23 dc 3d d3 10 e2 bb 97 18 b2 bd 29 fc 16 3e
       0.1074894 -0.0068989783 -0.086960964 0.14744629
000210 f7 6c 82 3d 75 d2 b5 bd c7 f4 bb 3b f0 9b be 3d
       0.0636844 -0.08878032 0.005735967 0.093070865
000220 bf 18 3f be 31 0b fd bd 34 60 54 bd ee fb 6c bd
       -0.18661784 -0.1235565 -0.05184956 -0.057857446
000230 81 1c a1 3d 11 d7 d9 bd 42 2b 00 be 3e 71 ea 3c
       0.07866765 -0.10636724 -0.12516502 0.028618451
000240 a0 0c b7 bd 88 36 bd bd d7 d4 98 3a 70 d9 d2 3d
       -0.08937955 -0.09238917 0.0011660111 0.10295379
000250 f0 de aa 3d e4 ec cb 3d 91 74 9d bb 3e c0 4b 3b
       0.08343303 0.09957293 -0.0048051556 0.0031089927
000260 89 ab 80 3d be e6 8b 3d 02 88 bb 3d bf 90 44 bd
       0.06282718 0.0683112 0.09156801 -0.047989603
000270 ee 42 df 3c 48 0c 58 be 17 4d b3 bd a9 b4 11 bd
       0.027253594 -0.21098435 -0.08754938 -0.03557268
000280 9e f1 63 bd ac 9d 89 3c ac 9a 8f bd ae 80 d6 3a
       -0.055650346 0.016798817 -0.07011923 0.0016365254
000290 c9 7f 14 3e ea 1e 17 3c 6e 4e fc bd 72 bd 1c bd
       0.14501871 0.009223679 -0.12319647 -0.038266607
0002a0 40 0d 7f 3d 12 b5 28 bd e8 23 e3 3d 53 54 dc bd
       0.062268496 -0.041188307 0.11090833 -0.10758271
0002b0 e7 d1 43 3d a3 46 e5 3d 31 ef 00 3d 7d 89 86 3c
       0.0478076 0.111951135 0.03147811 0.016422981
0002c0 97 f3 f4 3d 75 59 1b 3d 29 55 ee 3d 14 d2 81 bd
       0.119605236 0.03792711 0.11637337 -0.06338897
0002d0 85 8a 25 3a fb e5 e2 bc f2 7a e9 3d 4f 9b e7 bb
       0.00063148915 -0.027697554 0.11400403 -0.007068075
0002e0 1c 1a 94 bd c5 2e d5 bd 45 c0 92 3d 39 fc 23 bd
       -0.072315425 -0.10409311 0.07165579 -0.04003546
0002f0 5e be f2 3d 4d 4a ae bd 43 6b bb bd ef 16 0b 3e
       0.11852716 -0.085102655 -0.09151318 0.13582967
000300 aa 5a 17 be b6 51 ae 3d 9e fb 12 3e 4c e4 c6 3b
       -0.1478068 0.08511679 0.14353797 0.0060696956
000310 43 f3 9c bd 68 c2 f5 3c 31 55 54 be f0 e2 53 3d
       -0.07663586 0.029999927 -0.20735623 0.051730096
000320 22 72 ae 3c ac 11 15 3e 90 6c 12 3e e6 f1 fa 3c
       0.021294657 0.14557523 0.14299226 0.030632924
000330 15 d6 ae bd cc 8a e5 3b 87 68 b3 bc 4f 47 85 3b
       -0.08536927 0.0070050713 -0.021900428 0.0040673385
000340 e5 03 35 3d 2b 0a ca 3d fb 85 11 3d 55 1c 98 bd
       0.044193167 0.09865221 0.035528164 -0.07427279
000350 0b b9 5f 3d 50 7a a4 3b c5 4f 66 3d e1 e3 13 be
       0.05461983 0.0050194636 0.056228418 -0.14442398
000360 be 06 e4 3d 02 05 c4 bd 0f c8 25 be 13 13 22 bd
       0.111340985 -0.09571268 -0.16189598 -0.03956897
000370 08 e7 62 bd df c1 3e 3e 61 0b f3 bc 0c 53 b8 3c
       -0.05539611 0.18628643 -0.029668512 0.022500537
000380 1d 0b a7 3d db 9d e1 3d a7 d8 40 3e 0e 19 e2 3d
       0.081564166 0.11016437 0.18832646 0.11039935
000390 35 2d 26 be 43 df 90 bd 33 04 f8 3c 1c 82 41 3d
       -0.16228183 -0.07073834 0.03027544 0.047243223
0003a0 1d 0d 0f 3e ae 13 03 3e c3 10 1f 3e 8d c4 1a be
       0.13969846 0.12800476 0.15533738 -0.1511404
0003b0 79 54 70 bb 42 0f cd 3d 77 5b 59 3d 3f e1 5b 3d
       -0.0036671443 0.10012676 0.053065743 0.05368161
0003c0 25 93 ff bd 79 fe 2c be 43 6f fc bd 1c 4c 17 bd
       -0.124792375 -0.16893949 -0.12325909 -0.036937818
0003d0 d4 49 d1 3d b0 70 ca bc ba 74 74 3b 56 b9 0b 3e
       0.1021916 -0.024711937 0.003730102 0.13644919
0003e0 20 e7 24 3d e2 b3 04 3d 94 85 8b 3d 11 d0 1c bb
       0.04025948 0.032398112 0.068125874 -0.0023927728
0003f0 e8 fb 14 be ce b0 86 3d 94 93 13 be fa 39 06 3d
       -0.1454922 0.065766916 -0.14411765 0.032770135

net.4.bias f4 [48]
000000 cb f9 a6 bd 08 8e d0 bb 6e 72 19 bd 71 92 e5 3b
       -0.08153113 -0.0063645877 -0.037462644 0.0070059826
000010 c8 d1 af 3c 06 17 bb bd ca a3 1b 3e 47 da e6 3d
       0.021462336 -0.09135251 0.151992 0.11272102
000020 00 d8 7e 3c e8 3c 23 3d 07 12 26 3e 8e 4d 32 bd
       0.015554428 0.039853007 0.16217814 -0.043530993
000030 75 1f 13 3e e8 9f 4e bc 77 47 31 3e 5c 54 9a bd
       0.14367469 -0.012611367 0.17312418 -0.075356215
000040 9f a8 fc 3d 69 72 00 be a0 59 e4 bd 4b 5b 86 3d
       0.123368494 -0.12543644 -0.11149907 0.065603815
000050 9a f1 9d bc 6b e4 bd 3d 5b 46 72 3e 74 5d ce 3e
       -0.019280244 0.09272083 0.23659651 0.40305674
000060 3a 86 e8 3d d3 b2 50 3d 4e 28 d1 bd 9e 13 fd bd
       0.11353727 0.05095179 -0.10212766 -0.12357257
000070 9c 8b fc 3c 7e 47 d5 bd 7f 5c 48 bd 6a 53 b3 3c
       0.03082829 -0.10414027 -0.048916336 0.02189036
000080 d6 eb 7f 3c df 3f a4 bb 45 b9 4a 3d 99 34 06 3c
       0.0156201925 -0.005012497 0.049493093 0.008191251
000090 60 d4 d3 3c 16 36 16 3d 9e 7e 94 bd 7c 06 b0 bd
       0.025858104 0.036672674 -0.07250713 -0.08594987
0000a0 e4 f5 b7 3d 61 fe ef bd 2f 5f 62 3d fd 7b f9 3d
       0.08982447 -0.11718441 0.055266555 0.12181852
0000b0 bd d0 62 bc 7b f6 73 3b 06 3e 04 39 a6 e5 0d 3e
       -0.013843712 0.0037225771 0.00012611607 0.13857135

net.6.weight f4 [48, 48]
000000 98 aa f7 bd 79 e6 35 3d e7 14 6a 3d 2d 7d 94 3b
       -0.12093085 0.04440925 0.05714884 0.0045315237
000010 3c 8d 11 3e ba 5d 32 be fe fa 9c bd 85 30 bc 3d
       0.14214033 -0.17418566 -0.076650605 0.09188942
000020 62 c2 cd 3d 84 6e 17 bd 7a 36 ad 3d 52 b4 23 be
       0.10046841 -0.03697063 0.08457656 -0.15986755
000030 9b ba ae 3d d8 24 fb bd 96 38 f2 bd 14 67 45 bd
       0.08531686 -0.12262887 -0.11827199 -0.048194006
000040 a7 a2 d2 3d 61 a9 03 3d db ab 85 3c 7f 58 d5 bd
       0.1028493 0.032143954 0.016317299 -0.1041727
000050 76 1d 0b 3e cd 48 73 3d 01 7e 6a bb d2 f6 f4 bc
       0.13585457 0.0593956 -0.003578067 -0.02990285
000060 8f 4e be 3d cd 0d c3 3c 13 53 eb bd c0 c0 87 3d
       0.092923276 0.023810292 -0.114904545 0.06628561
000070 62 53 c3 3c 96 62 b3 3d 99 4f 89 bc 0a 64 d6 bd
       0.023843471 0.08759038 -0.016761588 -0.104683
000080 62 40 d3 bd c0 bf aa 3b 78 2f 0a bc 01 ce 24 bd
       -0.103150144 0.0052108467 -0.008434169 -0.040235523
000090 03 7a 0b 3e 8f e5 bb 3d 79 f6 27 be c3 4a 7e bc
       0.13620763 0.09174644 -0.16402616 -0.015520754
0000a0 f3 3d be bd f5 98 87 3d d3 e9 1f 3e 1d 70 35 3d
       -0.092891596 0.06620971 0.1561654 0.044296373
0000b0 66 a3 2f bd f4 d8 0c bd 7d 47 9f bd 7e 38 78 3d
       -0.04288044 -0.03438659 -0.07777307 0.06060075
0000c0 6e f8 0e be 1f 77 80 bd 86 3e 3e 3c 9d 0e ea bd
       -0.13961956 -0.062727205 0.011611586 -0.114285685
0000d0 71 fc 0a 3d 74 69 00 be 3b 74 b6 3d 46 3f 86 3d
       0.033932153 -0.12540227 0.08908888 0.06555037
0000e0 98 b4 f3 3d 42 61 22 bd e1 11 bd 3d ba 7f e7 ba
       0.1189968 -0.039643534 0.09231926 -0.0017661967
0000f0 50 92 e3 3d 41 d5 29 be 0f 81 df 3c 08 cd 34 be
       0.11111891 -0.16585256 0.02728322 -0.17656338
000100 5f 85 41 3e ab e4 03 be 31 71 a4 3d cb e8 c3 3d
       0.18898533 -0.12880199 0.08029402 0.09565886
000110 6e 3a 04 3e d7 3c d4 bc 91 6a 7d 3e b6 70 4e be
       0.12912914 -0.025907917 0.24747683 -0.20160183
000120 ce 4d bf 3d e0 56 ef 3c 26 2f cb bd e3 af d9 bd
       0.09341012 0.02921623 -0.09921102 -0.10629251
000130 15 52 25 3e 5a a2 b6 bd 1f 02 ee bd 4d 74 c4 bd
       0.16144593 -0.08917685 -0.11621498 -0.09592495
000140 d0 24 f4 3d 81 37 e8 3d 2e 94 32 be 50 3e 03 3e
       0.11921084 0.113387115 -0.17439339 0.12816739
000150 aa 4b 0f 3e ab 19 23 bb da 87 14 3d 93 7a 2f be
       0.13993707 -0.0024887125 0.03626237 -0.17136602
000160 7c 2f c1 bd 08 b0 0e bb 61 4d d5 3d 7f 5c ce 3d
       -0.09432885 -0.0021772403 0.104151495 0.10076236
000170 b2 e7 00 3e 4b d8 1e 3e 69 b7 a3 3c 21 ce f2 3c
       0.12588385 0.15512197 0.019984918 0.029639306
000180 b6 5b 65 bd 13 90 49 3d 57 31 0b 3d 47 b5 bc bc
       -0.055995665 0.049209666 0.0339826 -0.023035659
000190 35 40 c3 bd e1 10 a2 3d 29 ed bb 3d a1 71 44 bd
       -0.09533731 0.07913376 0.09176094 -0.047959927
0001a0 8e 42 00 be 83 a1 29 be 90 e9 3d 3d 65 2f 5a bc
       -0.12525389 -0.16565518 0.04636532 -0.013316964
0001b0 8c 13 e7 bd ca 52 41 3c 03 3a a8 bd 75 18 19 3e
       -0.11283025 0.011799524 -0.0821419 0.14950736
0001c0 b3 f4 ce 3c 51 c8 c3 3d 18 32 cf 3d c0 82 1b be
       0.025263166 0.09559692 0.101169765 -0.15186596
0001d0 53 cd 13 bd 7d ab dd 3d e6 81 e7 3d 83 28 33 3d
       -0.036084484 0.108237244 0.11304073 0.043739807
0001e0 9c 3f 99 3c c0 ea c8 3d d3 b9 08 3e 05 91 1b be
       0.01870709 0.098104 0.13352136 -0.1519204
0001f0 43 79 be bd ed 68 2b 3e 96 48 09 3e 41 6b f8 3d
       -0.093004726 0.16739245 0.13406596 0.12129832
000200 20 a5 b5 3b 26 ab 09 be 10 d2 e4 bd 65 2e 11 3d
       0.005543366 -0.13444194 -0.11172879 0.035444636
000210 3a cb 96 3d 9d e3 87 3d ef 3a 86 bd 5c 41 e1 bc
       0.07362981 0.06635211 -0.065542094 -0.027496986
000220 3f 62 6c 3b d3 d7 a1 bd b4 f2 14 be 48 0a 88 3d
       0.0036069301 -0.07902493 -0.14545709 0.06642586
000230 2d 42 2b be 30 34 9f 3d c2 5f b4 bd f7 80 f4 bd
       -0.16724463 0.07773626 -0.08807327 -0.119386606
000240 af 10 d9 3c 34 2f 53 3c 81 ca fd 3c a3 82 0e be
       0.026497213 0.012889672 0.03098035 -0.13917021
000250 60 3b f5 bc c1 75 38 bd 83 a7 96 3d 98 ac 9d 3d
       -0.029935539 -0.045034174 0.07356169 0.07698935
000260 27 32 68 3d 49 3b d8 3c 4d 91 bc bd 93 a1 b0 3d
       0.056688454 0.026395457 -0.092074014 0.08624568
000270 6f 18 9a 3d f3 f4 80 3d 34 a2 66 bd a2 f0 b2 3d
       0.075241916 0.0629672 -0.056307033 0.08737303
000280 0b 8e 29 be 4d f7 24 3e cc 30 bd 3d 1a 99 61 3c
       -0.16558091 0.16109963 0.09237823 0.013769412
000290 f8 a4 cc 3d 10 c6 72 3d d6 23 a1 bd 83 69 09 3e
       0.09992403 0.05927092 -0.07868163 0.13419156
0002a0 31 00 44 bd 93 35 11 3e 55 9b 96 3d 47 ea e0 bc
       -0.047851745 0.14180593 0.07353846 -0.027455462
0002b0 b1 d8 a5 3d 2a 11 b7 bd fa ee ed 3d 91 82 a9 3d
       0.08097971 -0.08938821 0.11617847 0.08276857
0002c0 30 8b 2d 3d 83 2f 05 3d 15 b9 02 be 0d e2 ec bd
       0.042369068 0.032516014 -0.12765916 -0.11566553
0002d0 04 e8 35 bd 57 ba 75 3d 3d 80 41 3d e7 9b b3 3c
       -0.04441072 0.05999216 0.04724144 0.021924926
0002e0 20 b5 80 bc fa 04 05 3e 1d 87 ed bd 05 c1 8b bd
       -0.015711367 0.1299018 -0.115980364 -0.06823925
0002f0 92 c2 14 be bc ea 74 bd f8 88 c0 3d f5 9e 67 bd
       -0.14527348 -0.059794173 0.09401125 -0.056548078
000300 a9 02 7a bd eb dc 8f 3d 5b 3f 8b 3d 6d e4 f5 bd
       -0.061037693 0.07024559 0.067991935 -0.120064594
000310 84 e6 be 3d a8 98 f1 bc ae 94 81 bd f1 b5 19 3d
       0.09321311 -0.029491737 -0.063271865 0.03752703
000320 52 a7 98 bd e8 f0 b5 bd a5 62 2a bd 73 da 04 3c
       -0.07453789 -0.0888384 -0.04159798 0.008108723
000330 6b a2 8a 3d ff d8 bd 3d c8 4a 29 3e 15 46 14 3e
       0.0676926 0.09269904 0.16532433 0.14479859
000340 d7 df 1f be 23 73 13 bd ae df 04 be 6f 5f 2f be
       -0.15612732 -0.035998475 -0.12975952 -0.17126249
000350 bd 62 a1 bd 5e 24 dc bb 5d 47 58 3d 49 74 f5 3d
       -0.07880161 -0.0067182025 0.052802432 0.1198507
000360 c1 4f 03 be 33 4d 69 3d ad 05 02 bc 39 30 5e 3d
       -0.12823392 0.05695839 -0.0079359235 0.054245207
000370 4d c1 48 bc 55 4c 07 3e 6b 92 1d ba 94 c6 3f 3d
       -0.012253118 0.13212712 -0.00060108927 0.04682024
000380 cb 77 db bd 18 e2 c0 bb 5d dd dd 3c 55 f0 48 bd
       -0.10716208 -0.0058863275 0.027083093 -0.049057323
000390 d6 bb 2c be 43 29 19 3e 93 a3 55 bd 13 05 1a 3e
       -0.16868529 0.14957146 -0.05215795 0.15040998
0003a0 53 a8 3b 3e de a9 07 be 5e ac 00 be 5c b3 99 bd
       0.1832593 -0.13248393 -0.12565753 -0.07504913
0003b0 89 ec 6e bd d8 d6 f6 bc bd 09 91 3d 22 4e db 3c
       -0.058331046 -0.030131742 0.070819356 0.026770655
0003c0 94 ab 07 3e b7 40 db 3d 21 01 c9 3b b6 57 9c bd
       0.13249046 0.10705703 0.006134168 -0.07633917
0003d0 39 31 b1 bd 26 b7 ee 3d 57 a0 58 3c 82 6b e4 3c
       -0.086519666 0.116560265 0.013221822 0.027883295
0003e0 16 9c fe bc b3 6f 8c bc 26 26 ec 3d 12 02 b8 3d
       -0.031080287 -0.017143106 0.11530714 0.0898477
0003f0 02 ca 2c be 6f f0 15 3e 0b 17 1d 3e 7a a1 12 3e
       -0.16873935 0.146425 0.15340821 0.14319411

net.6.bias f4 [48]
000000 8c 2e b8 3d c0 64 82 3d d6 ef 28 be 96 76 46 3c
       0.08993253 0.06366873 -0.1649774 0.012113234
000010 03 65 f2 bd 56 0b cc bd 62 2a 6a bc 0b a3 8f 3d
       -0.11835673 -0.099631 -0.014292331 0.0701352
000020 34 de 81 bd 65 d5 23 be 5e 3e 70 bc d2 26 5d bc
       -0.0634121 -0.15999372 -0.014663307 -0.013498025
000030 6c 32 1a bd c1 2b ff 3c 41 91 5c bc 22 d8 b0 bd
       -0.037645742 0.031148793 -0.013462366 -0.08634974
000040 0e ab 5c 3d 35 60 bf bb ab 4a 46 3d 83 ba 5f bd
       0.053874068 -0.005840326 0.048411053 -0.05462123
000050 a1 f5 ff 3d db 8d 82 bd 0c 89 78 bd 4a 79 c9 bd
       0.12498022 -0.06374713 -0.060677573 -0.09837587
000060 2f c7 54 3d 08 e2 07 be 1c 92 76 3d c4 90 18 3d
       0.05194777 -0.13269818 0.060197935 0.037247434
000070 68 dd 18 3e 4c d2 1a 3d 39 19 e4 bd 5c ae 20 be
       0.1492821 0.03779821 -0.11137623 -0.15691513
000080 bc c3 d9 bd eb ad ae 3d b8 aa 38 bd 8b ba aa bd
       -0.106330365 0.08529266 -0.045084685 -0.083363615
000090 41 b3 8d 3c 1a 73 d8 bd 70 95 24 3d 1e 59 b9 3d
       0.017297389 -0.10568829 0.040181577 0.09050201
0000a0 8b c3 a3 bb fc 9b 6e 3e 60 36 03 3e d5 54 5c bb
       -0.004997676 0.23301691 0.12813711 -0.00336199
0000b0 aa 98 09 3e 11 7e d2 ba 15 71 8c bd db d6 10 3e
       0.13437143 -0.0016059299 -0.06857506 0.14144461

net.8.weight f4 [48, 48]
000000 48 88 05 3d c0 19 5d bc 74 2e cf 3c 1a 1d ce 3d
       0.03260067 -0.013494909 0.025290705 0.100641444
000010 fb e7 2a 3d 41 8e 98 bd 93 0e 81 bc 93 64 df bc
       0.04172514 -0.07449008 -0.01575402 -0.027269637
000020 89 40 3f 3d a6 4d ad bd 7a 0a 55 3d 4b d9 24 3e
       0.046692405 -0.08462076 0.052011944 0.16098516
000030 6a 52 25 3e 65 5f fd 3c 09 b6 29 3e fe ad 9b 3c
       0.1614472 0.030929277 0.16573347 0.019003864
000040 c3 a3 9a bd fc 1c 54 bd 99 21 f3 bd da d2 85 3d
       -0.07550766 -0.051785454 -0.118716426 0.06534357
000050 2a d4 c6 3d fe 95 77 3d 9f da c2 3d 5e 48 91 3d
       0.09708436 0.060445778 0.09514355 0.07093881
000060 57 66 18 3e 86 af 37 3d 9c 1e c3 bb 72 b2 cd 3d
       0.1488279 0.044845127 -0.0059545767 0.10043801
000070 42 29 a2 bd 7f cd 1a bd 08 92 8f bc 62 88 11 3b
       -0.079180256 -0.037793633 -0.017525688 0.0022206535
000080 bf 6d 6a bd 38 0d 1a be 29 52 b1 bd ff 74 2a bd
       -0.05723357 -0.15044105 -0.08658249 -0.041615482
000090 05 1f 25 3d 4b 97 e4 3c 0f 83 dc ba 73 db bf bd
       0.040312786 0.027904173 -0.0016823726 -0.093680285
0000a0 60 92 b2 3d 29 46 3e be 51 23 e8 bd 69 99 ee 3d
       0.08719325 -0.18581451 -0.11334861 0.116503544
0000b0 23 bf 42 3c 71 10 6d bd 1a 9b db bd e4 c3 e4 bd
       0.011886391 -0.057877008 -0.10722943 -0.11170176
0000c0 84 1a 9f 3d 5c ce 45 bd 15 a6 46 bd ce 5b 4b bd
       0.07768729 -0.048292503 -0.048498232 -0.0496481
0000d0 a9 ae 0d bd 9d 2b 25 be 7d 24 b3 bd c0 49 f3 3d
       -0.034590397 -0.16129918 -0.08747194 0.11879301
0000e0 21 0b 80 3d 28 6f 60 bd be a4 09 3c e5 d3 00 be
       0.06252123 -0.054793507 0.008401094 -0.12580831
0000f0 61 d6 14 be d0 66 f4 3c eb a8 43 3d d7 c2 b1 bd
       -0.14534904 0.029834181 0.047768515 -0.08679741
000100 e1 ed b9 bd 7a 2a be 3d 6f 66 11 bc e6 01 26 be
       -0.09078575 0.092854455 -0.00887452 -0.16211662
000110 dd 10 93 3d 5c cb 23 be ef 69 ee 3d 94 71 21 bd
       0.07180951 -0.15995544 0.11641299 -0.039414957
000120 c3 fc 92 3d 76 a7 1c be e8 21 54 bd 98 53 73 3c
       0.07177117 -0.15298256 -0.051790148 0.014851473
000130 32 92 b1 3d d2 e2 10 3e 2a a1 81 bd 58 ac c3 bd
       0.08670463 0.14149025 -0.06329568 -0.09554356
000140 23 7a c4 3d 98 c7 73 bc 4d c8 a4 3d 74 1f bb bc
       0.09593608 -0.01487913 0.08046017 -0.022842146
000150 18 19 20 be 8f ce 8a bd 08 7c 03 3e c4 f3 0b bd
       -0.15634573 -0.06777679 0.12840283 -0.03416802
000160 0a e5 93 3d dc e0 6e bd 50 6d e7 3d 2b a2 df bc
       0.0722142 -0.05831991 0.113001466 -0.027299007
000170 3e 98 a7 3d ab 53 a3 3d 0e eb bb bc bb cf 41 bd
       0.08183335 0.07974943 -0.022939231 -0.047317248
000180 6b 20 58 bd 3f 0b 3e bd 94 89 c9 bc be 90 25 be
       -0.05276529 -0.046397444 -0.024601735 -0.16168496
000190 21 02 7e 3d c7 42 9c 3c 83 0a 3f bd 6d 90 d9 3d
       0.06201375 0.01907481 -0.046640884 0.1062325
0001a0 8d e9 95 bd b5 48 11 3e c3 12 28 bd 1d a9 16 be
       -0.07319937 0.14187892 -0.041033518 -0.14712949
0001b0 c5 9e be 3d b6 36 14 3d e3 6a dd bd 3c 3a ae bc
       0.09307627 0.03618499 -0.10811403 -0.021268003
0001c0 48 44 a4 bc 5c 8a 17 bc 58 7b 96 bd 77 b1 13 3c
       -0.02005209 -0.009249296 -0.07347745 0.009014479
0001d0 dd 97 aa bd e6 72 a8 ba 7f 73 dc bd b1 29 28 be
       -0.08329747 -0.0012851625 -0.10764217 -0.16422154
0001e0 46 76 66 3d 94 2a 8a bd 15 c5 d2 3c a1 a3 c7 3d
       0.056265138 -0.067464024 0.025728742 0.097480066
0001f0 23 a7 a0 3c c8 a6 d5 3c a0 e3 ab bd 7a ec 10 bd
       0.019610947 0.026080504 -0.083930254 -0.03538177
000200 0a de d0 3c e4 cb d5 3c de 88 34 bc 54 8a c8 bd
       0.025496501 0.0260982 -0.01101896 -0.09792009
000210 83 c5 7e 3b 90 d1 05 be ae 58 02 3e bd e0 96 3d
       0.003887505 -0.13068223 0.12729141 0.07367084
000220 39 ee 29 3e 8b a3 c3 3d f8 33 c2 3c ed fa 8e bd
       0.16594781 0.09552678 0.023706421 -0.06981454
000230 43 f4 13 3e 27 af a5 3c 24 f4 91 bd 5b a9 f7 3d
       0.14448647 0.02022512 -0.07126644 0.12092849
000240 f6 00 68 3d 28 87 b7 3d 3b ec 5b bc 71 e5 a0 3d
       0.05664154 0.08961326 -0.013423021 0.078562625
000250 86 67 80 3d a0 9a f7 3b 55 8b b6 3d b4 7b 24 3d
       0.062697455 0.0075562745 0.08913294 0.040157035
000260 34 a7 b7 3d 6d ec e9 bc 13 38 f2 bc 7e c0 09 3d
       0.08967438 -0.02855512 -0.029567754 0.03363084
000270 a7 42 f1 bc c1 e5 de 3b 97 70 7a 3e c0 09 1a bc
       -0.029450728 0.006802291 0.24457012 -0.009401739
000280 c8 55 b1 bd 2f a2 16 bf 7b cc 10 3e a1 9d 35 bc
       -0.086589396 -0.5884122 0.14140503 -0.011084945
000290 62 1c 9a 3d 60 0e b3 3c d2 84 14 be 23 40 85 3d
       0.07524945 0.02185744 -0.14503792 0.06506374
0002a0 c6 7d 0d 3d 72 25 ac 3c 7e 0f 41 3e b3 ee 28 be
       0.034543775 0.021013949 0.18853566 -0.16497307
0002b0 33 16 d1 bd 5e 0c 97 bd a5 0f 5a be 37 1f 46 3d
       -0.10209312 -0.07375406 -0.2129503 0.048369613
0002c0 59 76 c5 3d 18 af c2 be b9 36 ae bd 3e 00 01 be
       0.09641714 -0.3802421 -0.08506531 -0.12597749
0002d0 be 5a 99 be 17 e3 10 be 4e 0a b1 bc 48 7e dc 3d
       -0.29952043 -0.14149128 -0.021611359 0.10766274
0002e0 b4 cb b6 3c 82 a2 83 bb d4 01 1b be de 87 18 be
       0.02231393 -0.004017175 -0.15137416 -0.14895579
0002f0 30 0b b9 bd b3 fb 5c be b1 91 ef bd 33 f5 09 3e
       -0.09035337 -0.2158039 -0.1169771 0.13472442
000300 30 a4 88 bd 2f ea 13 be a2 49 62 bd e3 18 eb bd
       -0.06671941 -0.14444803 -0.055246003 -0.11479356
000310 cf 79 21 bd ef 0c 5e 3e a3 17 29 3d 0f 60 1a bd
       -0.039422806 0.21684621 0.041282307 -0.037689265
000320 3b 1f fa bc 96 32 69 bc 8d 82 fa bd 68 02 dd bd
       -0.03053247 -0.014233252 -0.12231932 -0.107914746
000330 ba 4e 8f bc 80 51 fc bd 06 b1 2d 3d 87 02 60 3c
       -0.017493594 -0.123202324 0.04240515 0.013672478
000340 87 45 b1 3d 7c 01 bc 3d 01 6e 2e 3d ee 8b 99 bc
       0.086558394 0.091799706 0.042585377 -0.018743481
000350 c0 14 14 be ec c7 ef 3d 17 3b dc bb 3b 5f a3 bd
       -0.1446104 0.11708054 -0.0067209112 -0.07977148
000360 c5 4c 0d be 59 6b be 3d 0b a1 47 3b f2 16 9e 3d
       -0.13798817 0.09297819 0.003046098 0.0771922
000370 1f be d2 3d a8 49 b7 bd 71 2f 86 3d 11 33 d4 3d
       0.10290169 -0.08949596 0.065520175 0.10361303
000380 80 e7 21 3c c2 3a 81 bc f8 ab 94 bd 1d 2a ee bc
       0.009881854 -0.015775088 -0.07259363 -0.029072816
000390 73 1e 85 3e 16 38 b4 bc ca 01 23 3e b6 fe 46 bd
       0.25999793 -0.0219994 0.15918651 -0.048582755
0003a0 f5 a0 46 bd 7e 9e 5d 3e 73 64 39 bd 8e 1a 6d bd
       -0.048493344 0.21642491 -0.04526181 -0.057886653
0003b0 1c 0e f0 3d 78 85 af bd 06 13 38 3e 14 d4 c6 bd
       0.11721441 -0.08570379 0.17976007 -0.097084194
0003c0 82 32 d9 bd 7f 3e 75 bd 43 ef 27 be 69 4d d6 bd
       -0.10605337 -0.059874054 -0.16399865 -0.104639836
0003d0 1b ac ea 3d 65 f3 f2 3d ef 6c 83 bd 9c c8 28 bd
       0.11458608 0.1186283 -0.06417262 -0.04120694
0003e0 54 37 1e bd a9 90 ff bd cd dc c9 3d 19 fb 0d bd
       -0.038626984 -0.124787636 0.098565675 -0.034663294
0003f0 92 b7 a9 3d 00 3c 1b be 34 ff 90 bc 0c e6 b2 bd
       0.082869664 -0.15159607 -0.017699815 -0.08735284

net.8.bias f4 [48]
000000 0b c6 e0 bd 1a 63 b1 3d 46 b3 98 3d 91 b4 10 3e
       -0.10975274 0.0866148 0.07456069 0.1413138
000010 30 f0 d5 bd c6 58 b9 3c c7 61 5b 3d 5a 6c 5a 3e
       -0.10446203 0.022625338 0.053560045 0.21330395
000020 05 b9 2c 3d b6 34 99 bd 8d cb c2 3c 08 14 d1 bd
       0.042168636 -0.07480757 0.023778701 -0.10208899
000030 a0 5f 11 3e 31 32 f6 bc a3 74 f8 3d 57 db 03 be
       0.14196634 -0.03005323 0.12131622 -0.1287664
000040 c6 05 32 be 34 c0 19 be 6f 22 db 3d 5b 80 ad bd
       -0.17385015 -0.15014726 0.10699927 -0.084717475
000050 9f 71 ad 3d d9 2b ac bd fd 09 c7 3d fd d9 08 3e
       0.08468937 -0.08406801 0.09718702 0.13364406
000060 fb b6 59 3d e9 7c e6 39 34 31 ed bc 3a d7 00 3e
       0.05315302 0.00043962084 -0.028954126 0.12582102
000070 35 c4 e0 3d 48 a3 ce bd 4d 01 34 3d 63 79 ff 3d
       0.109749235 -0.10089737 0.043946553 0.124743246
000080 b2 f3 0a 3c d5 b3 24 3d 9d d3 6f 3c a3 ae 83 bd
       0.008480953 0.040210564 0.014637855 -0.06429794
000090 9e 47 16 3e 73 33 ba 3b 41 3d 86 3d 4c 69 ca bd
       0.14675757 0.0056824028 0.06554652 -0.09883365
0000a0 1e 30 66 3d 01 6d 22 bc df 94 f8 3d 5a 69 dc bd
       0.056198232 -0.009913684 0.1213777 -0.10762282
0000b0 68 08 ce 3d 00 7c 91 bd 50 21 fe 3d ca 08 99 3d
       0.10060197 -0.07103729 0.124086976 0.074723795

net.10.weight f4 [4, 48]
000000 f8 8c 18 bd 5e 60 29 3e b9 69 c7 3d 56 7a aa bd
       -0.037243813 0.16540667 0.09736962 -0.08324115
000010 fc 1d 14 be 91 e6 5b bb 2f a3 ee bd ce fb ab 3d
       -0.14464563 -0.0033554176 -0.116522186 0.08397637
000020 a3 dd 07 bc b6 34 17 be 42 8a 20 3e 56 f7 ca 3d
       -0.008292588 -0.14766201 0.15677741 0.09910457
000030 27 6b cb 3c 43 ae 29 3e 63 c4 1a 3e d9 e3 c8 bd
       0.024831368 0.16570382 0.15113978 -0.098090835
000040 d7 0e 38 be 81 b0 93 bd 1c 7a 41 3d 4e 1c 4a bd
       -0.17974411 -0.072114 0.047235593 -0.0493434
000050 b7 e4 68 3b a4 8e 35 bd 7d 7e 84 bd 9f 76 b5 bd
       0.0035536715 -0.044325486 -0.06469438 -0.08860516
000060 71 d2 89 3d cb ad a2 3d ad 84 87 bd e6 bf 99 bd
       0.06729592 0.07943305 -0.06617103 -0.07507305
000070 63 8d ed 3d f9 9b e2 bd 57 c4 40 3e 4c a4 e4 bc
       0.11599233 -0.11064906 0.18824898 -0.027910374
000080 31 cb 88 bd 0d dd 91 bd ba d9 aa bd f0 40 b6 3d
       -0.06679381 -0.0712224 -0.08342309 0.088991046
000090 76 98 02 3e 67 cd d5 3d 86 8e d6 bc 23 f7 46 be
       0.12753472 0.10439568 -0.026191007 -0.19430213
0000a0 0f f3 9c 3d 41 ec f8 3d 42 6b 1a bd f7 4a 12 3c
       0.07663547 0.12154437 -0.037699945 0.008929006
0000b0 87 9d 80 bd 9b 19 94 bd 9c 84 39 bd 9c ac a9 3d
       -0.06280046 -0.07231446 -0.04529248 0.08284876
0000c0 0c 21 d4 bc f9 53 85 3d 47 8e 7c 3c 9e 73 11 3e
       -0.025894664 0.06510157 0.015414781 0.1420426
0000d0 66 ba 82 3d b5 02 e6 3d d2 79 fe 3c dc d0 dd 3d
       0.06383209 0.11230985 0.031063948 0.108308524
0000e0 f6 32 19 3e f9 8b ad bd 91 82 1a bd 70 32 a4 3c
       0.14960846 -0.08473963 -0.037722174 0.020043582
0000f0 96 a1 b3 3c db 9a da bd 74 80 01 be 94 9b 4b 3d
       0.021927636 -0.106740676 -0.12646657 0.049708918
000100 6b 9e 05 be 65 16 3d bd 8b 99 ca 3b 59 61 dc bd
       -0.13048713 -0.046163935 0.0061828545 -0.10760755
000110 00 f1 d1 bd 14 2b a8 bd 7f ab 27 3e 93 10 44 3d
       -0.10251045 -0.082113415 0.16374014 0.04786737
000120 bf 66 c5 3d cb de 2a 3e 7e 56 e5 bd ce 18 8d bd
       0.09638738 0.16686551 -0.11198138 -0.06889497
000130 5a 5f 21 3e 16 a1 77 bd 8c 1e fd 3d 37 87 09 3e
       0.1575903 -0.060456358 0.12359342 0.13430487
000140 e8 f3 88 3d b5 0b 96 3d ed db 0e be 31 9b df bc
       0.066871464 0.07326452 -0.13951083 -0.02729568
000150 8b 88 0c 3e f1 89 2b be ce ee 40 3e a0 4b a1 bd
       0.13723962 -0.16751839 0.18841097 -0.078757524
000160 20 a0 ba 3d 9e 2f 83 bc 92 e9 c7 bd e3 69 9d 3d
       0.09112573 -0.016013917 -0.09761347 0.07686212
000170 30 fb 96 bd f4 94 10 be ca b8 06 3d 43 ac e0 3d
       -0.07372129 -0.14119321 0.032891072 0.10970356
000180 36 c1 d3 bd 61 44 1e be fe 41 62 3e 04 88 46 bf
       -0.103395864 -0.15455772 0.22095487 -0.77551293
000190 f5 77 8f 3e e6 77 f6 3e 8b a7 58 3e 45 04 6d 3e
       0.28021207 0.4813835 0.21157663 0.2314616
0001a0 45 2b ec 3d 82 bf bc bb f8 39 14 3b 99 53 c5 3e
       0.115316905 -0.005760134 0.002261756 0.38540342
0001b0 24 75 9b be a9 e7 8c 3d 66 6f c0 bd 52 95 55 3e
       -0.3036281 0.06880123 -0.093962476 0.20857742
0001c0 f3 6c d5 3d 2d 99 8c bd 24 cc 1b be 92 c5 aa bc
       0.10421171 -0.068651535 -0.15214592 -0.020846162
0001d0 5a c7 45 bd a9 45 e7 3d 13 dd f5 bd fe 7d 8c be
       -0.04828582 0.112925835 -0.12005057 -0.27439874
0001e0 03 1f 34 be 7d 38 10 3e 46 68 39 be 81 7e 29 3e
       -0.17589955 0.14084049 -0.18106183 0.16552164
0001f0 a8 5e 83 bb 03 1e bc bd bc 3f 27 be 35 03 bc 3d
       -0.0040090866 -0.09185412 -0.16332906 0.09180299
000200 27 4c 23 bf c5 86 a1 be 07 ef 01 3e dc d8 3f bd
       -0.63788074 -0.31548133 0.12688838 -0.046837673
000210 12 83 1d 3d c1 ba 3d be be 58 a5 3d ab 17 e8 3d
       0.038455077 -0.18528272 0.08073567 0.11332639
000220 3e 74 53 bd 64 e7 b2 3c 57 40 17 3d 54 96 ef 3d
       -0.05162453 0.021838851 0.036926594 0.11698595
000230 73 d2 e8 3d 95 0b 16 3e 77 68 2e 3e 3d a2 de bd
       0.11368265 0.14652856 0.17032038 -0.10870788
000240 42 1f d2 bd b7 91 5f 3d 29 f7 d8 3d 52 b8 2b be
       -0.10259868 0.054582324 0.10594017 -0.16769531
000250 03 e4 da 3d 5e 5f 5b be 25 1b 50 bb 83 7f 8a be
       0.10688021 -0.21423098 -0.003175446 -0.2705041
000260 ba 8c 38 be e9 5a 5f bd 26 49 09 3e e7 28 8a 3b
       -0.18022433 -0.054530058 0.1340681 0.0042163017
000270 85 c7 ce bd 9b ec 18 3e df 40 59 3d 75 a9 cf bd
       -0.10096649 0.14934008 0.05304038 -0.10139743
000280 50 93 b9 3d d7 96 89 3d d9 43 a6 bd 86 25 b5 3d
       0.09061301 0.067182235 -0.0811841 0.08845048
000290 02 72 02 bc cd 6f 06 be 0f be a3 3d d8 32 1d 3d
       -0.007961752 -0.13128586 0.07995235 0.038378567
0002a0 d8 40 b1 3d e9 d0 34 3e 67 11 09 3e 5d 50 52 be
       0.08654946 0.17657818 0.13385545 -0.20538469
0002b0 f7 32 13 bc a9 02 39 bd e1 0a 1c 3e 57 ff 03 be
       -0.008984319 -0.045168553 0.15238525 -0.12890373
0002c0 cd b5 80 3e ae 33 dd ba b7 95 6b bd fe 23 0c 3e
       0.25138703 -0.0016876364 -0.057515826 0.13685605
0002d0 75 2c 46 3d 7f 15 7f 3e d9 0e 8d 3c 75 44 a5 3d
       0.04838224 0.24910544 0.017218994 0.08069698
0002e0 ee cb ca bd b6 e2 ca 3d e4 b3 40 be 4f 3d 9a 3d
       -0.09902178 0.09906523 -0.18818623 0.07531225
0002f0 2a 95 1b be 99 04 31 3d 51 55 eb 3e 63 2a 0c 3d
       -0.1519362 0.043217275 0.4596353 0.03422011

net.10.bias f4 [4]
000000 b4 f6 86 3d 4a 1b a8 bc 9a 43 f4 bd d0 0f 11 bf
       0.06590024 -0.020520825 -0.119269565 -0.5666475
